…
==================================================================================================
 input_1 (InputLayer)           [(None, 20, 224, 22  0           []
                                4, 3)]

 time_distributed (TimeDistribu  (None, 20, 7, 7, 12  2257984    ['input_1[0][0]']
 ted)                           80)

 time_distributed_1 (TimeDistri  (None, 20, 7, 7, 12  99         ['time_distributed[0][0]']
 buted)                         80)

 time_distributed_2 (TimeDistri  (None, 20, 7, 7, 12  5120       ['time_distributed_1[0][0]']
 buted)                         80)

 time_distributed_3 (TimeDistri  (None, 20, 1280)    0           ['time_distributed_2[0][0]']
 buted)

 time_distributed_4 (TimeDistri  (None, 20, 1280)    0           ['time_distributed_2[0][0]']
 buted)

 concatenate (Concatenate)      (None, 20, 2560)     0           ['time_distributed_3[0][0]',
                                                                  'time_distributed_4[0][0]']

 lstm (LSTM)                    (None, 128)          1376768     ['concatenate[0][0]']

 flatten (Flatten)              (None, 128)          0           ['lstm[0][0]']

 dense (Dense)                  (None, 128)          16512       ['flatten[0][0]']

 dropout (Dropout)              (None, 128)          0           ['dense[0][0]']

 dense_1 (Dense)                (None, 25)           3225        ['dropout[0][0]']

 dropout_1 (Dropout)            (None, 25)           0           ['dense_1[0][0]']

 dense_2 (Dense)                (None, 10)           260         ['dropout_1[0][0]']

 dropout_2 (Dropout)            (None, 10)           0           ['dense_2[0][0]']

 dense_3 (Dense)                (None, 2)            22          ['dropout_2[0][0]']

==================================================================================================
Total params: 3,659,990
Trainable params: 2,605,526
Non-trainable params: 1,054,464
__________________________________________________________________________________________________
Starting training from scratch.
Found 800 files from 2 class.
     Fight :  0
  No_Fight :  1
…
